src/main/resources/py/model/LeNet.pt (torch_old, 139063 bytes, 10 tensors)

conv1.weight f4 [10, 1, 5, 5]
0	0x3e0ac3a6	0.13551196
1	0x3e9b5a76	0.30342454
2	0x3e2784f0	0.16359305
3	0x3e7536fb	0.23946755
4	0x3b6f29d6	0.0036493442
5	0xbd88f352	-0.06687035
6	0xbe60dc6c	-0.21959084
7	0xbdcbcd1e	-0.099512324
8	0x3e1d8ce3	0.15385775
9	0x3df9fb94	0.12206188
10	0xbe769117	-0.24078785
11	0xbcdfb44c	-0.027307652
12	0xbec9b459	-0.39395407
13	0xbf0f45a5	-0.55965644
14	0xbe74f48c	-0.23921412
15	0xbce5fef3	-0.02807567
16	0xbdf6b363	-0.12045934
17	0x3e44657c	0.19179338
18	0x3e025664	0.12728268
19	0xbe74120b	-0.23835008
20	0x3e9d769a	0.30754548
21	0x3db3f52b	0.087869965
22	0x3e34e175	0.1766413
23	0x3e730b46	0.23734769
24	0x3ebdfefa	0.37108594
25	0x3c924027	0.017852856
26	0xbe5da8c5	-0.21646412
27	0xbe8128ed	-0.25226536
28	0xbe8dd69d	-0.277028
29	0xbda02c07	-0.078208975
30	0xbd9a6ff9	-0.07540888
31	0xbdc0d65a	-0.09415884
32	0xbd97c451	-0.07410491
33	0xbe9a2a13	-0.30110225
34	0xbd96254e	-0.07331334
35	0x3d507496	0.050892435
36	0xbe28b06c	-0.1647355
37	0xbe987958	-0.29780078
38	0xbd32c3b9	-0.043643687
39	0x3eadefc7	0.33971998
40	0xbd910c63	-0.07082441
41	0xbe614a82	-0.22001079
42	0x3c7c347f	0.015393375
43	0x3e7dd9be	0.24790093
44	0x3eb41a3a	0.3517626
45	0x3d40384d	0.046928693
46	0xbd09a93f	-0.03360867
47	0x3ea3fb7d	0.32027808
48	0x3ec26a76	0.37971848
49	0x3e6ea92f	0.23306726
50	0xbe669b6b	-0.22520225
51	0xbe9062c5	-0.28200355
52	0xbe7c037d	-0.24610706
53	0xbe6a9705	-0.22909172
54	0xbdaf44cb	-0.08558043
55	0x3cb8b521	0.022547306
56	0x3df4c057	0.119507484
57	0x3d992f80	0.07479763
58	0x3d45dfb7	0.048309054
59	0xbe32ff58	-0.17480218
60	0x3e464c99	0.19365157
61	0x3cd3c3ab	0.025850138
62	0x3d5a2f06	0.0532675
63	0xbdc0d4fc	-0.094156235
64	0xbe3b2076	-0.18274102
65	0x3d543193	0.05180509
66	0xbd7e3814	-0.0620652
67	0x3bc7a352	0.0060924673
68	0xbe2f68fb	-0.1712989
69	0xbdff23fc	-0.12458035
70	0xbd13f34e	-0.036120705
71	0x3be00111	0.0068360646
72	0xbe69ff24	-0.22851235
73	0xbe22b1f2	-0.15888193
74	0x3d8af5ba	0.0678515
75	0xbe456204	-0.19275671
76	0x3dd19eb5	0.10235349
77	0x3e1b0fb1	0.15142705
78	0x3e40ee2f	0.1884086
79	0x3e31432c	0.1731078
80	0xbe24cad5	-0.16093
81	0xbe3b1c56	-0.18272528
82	0x3e2dc50d	0.169697
83	0xbdc456ff	-0.09586906
84	0xbe0f5540	-0.13997364
85	0xbe3b6132	-0.18298796
86	0xbeb23d83	-0.34812555
87	0x3bf74161	0.0075456356
88	0x3dbe1825	0.09281949
89	0xbe5294ef	-0.20564626
90	0x3e69c879	0.2283038
91	0xbe841801	-0.25799564
92	0xbdade80a	-0.084915236
93	0x3e3d66b1	0.18496205
94	0x3e46b86c	0.19406289
95	0xbd4aa77b	-0.049476128
96	0xbe52eb8e	-0.2059767
97	0xbe4075f0	-0.1879499
98	0xbe3b48a1	-0.18289424
99	0x3db5c8d6	0.08876197
100	0xbe3e2753	-0.18569688
101	0x3e7484cb	0.23878781
102	0x3e1a7a2d	0.15085669
103	0x3e72758a	0.2367765
104	0x3cec1eef	0.028823344
105	0xbe59a7e7	-0.21255456
106	0x3ca4053a	0.020022023
107	0x3e1bf608	0.15230572
108	0xbdf9c8d1	-0.12196506
109	0xbe17d982	-0.14829066
110	0xbe6ce7ca	-0.23135296
111	0x3cf183a9	0.029481726
112	0xbdea4bcc	-0.11440238
113	0xbd39df64	-0.045379058
114	0xbd8543ff	-0.0650711
115	0xbd76149e	-0.060078256
116	0xbe86830b	-0.26271853
117	0xbd677630	-0.056509197
118	0xbe4ee302	-0.20203784
119	0xbe369b3b	-0.17832653
120	0x3d173648	0.036917
121	0xbda182a6	-0.07886247
122	0xbe31fee3	-0.17382388
123	0xbe1596ec	-0.14608353
124	0xbe15bba8	-0.14622366
125	0x3c99c20e	0.01876929
126	0xbd6dc833	-0.058052253
127	0xbc2bc599	-0.010484123
128	0xbd6aa1ec	-0.057283327
129	0x3e050f71	0.12994172
130	0x3ec3692e	0.38166183
131	0x3e8c5469	0.2740815
132	0x3d843d2a	0.064569786
133	0xbe1a98df	-0.15097378
134	0xbea1614a	-0.31519538
135	0x3c9fc206	0.019501697
136	0x3de83747	0.11338668
137	0xbd6ac424	-0.05731596
138	0xbe3f2d09	-0.18669523
139	0xbe2485a3	-0.16066603
140	0xbe9d53d8	-0.3072803
141	0xbe3d28e5	-0.18472631
142	0x3cef310f	0.029198198
143	0x3e510790	0.20413041
144	0x3ec9d07f	0.39416882
145	0x3c2320fc	0.009956595
146	0xbe2c59db	-0.16831152
147	0xbd07241a	-0.032993414
148	0x3e42b599	0.19014587
149	0xbd861cb9	-0.06548447
150	0xbeba5571	-0.36393312
151	0xbe9b8df0	-0.30381727
152	0x3e0bac04	0.13639838
153	0x3ea70a85	0.32625213
154	0x3ea19c9f	0.31564805
155	0x3d855c9e	0.06511806
156	0xbe53cc5e	-0.20683429
157	0xbe000d90	-0.12505174
158	0xbdd41ab7	-0.10356658
159	0x3e63c6a8	0.2224375
160	0x3e840ac2	0.25789458
161	0x3e06a4cd	0.13148804
162	0x3d8b565e	0.068035826
163	0x3d5cdbb0	0.053920448
164	0xbebf96b5	-0.37419668
165	0xbc292af8	-0.010325186
166	0x3e316877	0.17325006
167	0xbd524544	-0.051335588
168	0xbe1bbc9b	-0.15208666
169	0xbd8ec981	-0.069720276
170	0x3db3baf4	0.08775893
171	0x3e8325df	0.2561483
172	0xbd7953c2	-0.060870893
173	0xbe0fe953	-0.1405385
174	0xbdc5069a	-0.096204
175	0x3de0a77a	0.109694436
176	0x3ec2e96a	0.38068706
177	0xbddb7942	-0.107164875
178	0xbdf89b49	-0.12138993
179	0x3a03b881	0.00050247466
180	0x3ea798c8	0.3273375
181	0x3e24dd03	0.16099934
182	0xbe8c8c92	-0.27450997
183	0x3e3c036c	0.1836068
184	0x3dde2e17	0.10848635
185	0x3debe256	0.115177795
186	0xbeca616b	-0.3952745
187	0x3c672106	0.0141069945
188	0x3ecf2c4a	0.40463477
189	0x3d760978	0.060067624
190	0xbdb319cb	-0.08745154
191	0xbd9317a4	-0.071822435
192	0x3eab4832	0.33453518
193	0x3e48ff71	0.19628693
194	0xbe43c056	-0.19116339
195	0xbe834b89	-0.25643566
196	0xbe32ada2	-0.17449048
197	0xbe5c7218	-0.21527898
198	0xbeac8e14	-0.33702147
199	0xbe603c43	-0.21897988
200	0xbe1cfbf8	-0.15330493
201	0x3e778ab2	0.24174002
202	0x3cd00bde	0.025396284
203	0x3db8d2ef	0.090246074
204	0x3e8dc1a3	0.27686796
205	0xbe7a2216	-0.24427065
206	0xbc7aef82	-0.015315892
207	0x3dcfc398	0.101447284
208	0xbde62dc8	-0.11239201
209	0x3def32af	0.11679589
210	0xbe11296f	-0.14175962
211	0xbe0a2e23	-0.13494162
212	0xbe021ee7	-0.12707101
213	0xbe33449a	-0.17506638
214	0x3e091dd4	0.13390285
215	0xbe8a658e	-0.27030605
216	0xbe8be6c6	-0.27324504
217	0xbe8703c4	-0.2637006
218	0xbebcde80	-0.36888504
219	0xbe09f638	-0.13472831
220	0xbd1e0163	-0.03857554
221	0xbc5aeb03	-0.013361695
222	0xbdf42c18	-0.11922473
223	0xbe4a3374	-0.1974619
224	0xbe1d689f	-0.15371941
225	0xbdd4c6e0	-0.10389495
226	0xbe8c7f80	-0.27441025
227	0xbe4b4b02	-0.19852832
228	0xbbdeef88	-0.0068034567
229	0xbdc26524	-0.09491947
230	0xbe90d49b	-0.28287205
231	0xbe527901	-0.20553972
232	0xbe1f1875	-0.15536673
233	0xbc2326a8	-0.009957947
234	0xbcea5646	-0.028605592
235	0xbeb04267	-0.3442566
236	0xbe204622	-0.15651754
237	0xbe228209	-0.15869917
238	0x3e4d9ad3	0.20078592
239	0x3e14b6e8	0.14522898
240	0xbe8f3bf5	-0.2797543
241	0x3d0a5241	0.03376985
242	0x3d9b0aa2	0.075703874
243	0x3e743385	0.23847778
244	0x3d8a7572	0.06760682
245	0xbe994fdd	-0.29943743
246	0xbd579155	-0.052628834
247	0xbd1815c1	-0.03713012
248	0xbc237288	-0.009976037
249	0x3c04339a	0.008068943

conv1.bias f4 [10]
0	0xbe1172e3	-0.14203982
1	0x3e49127f	0.19635962
2	0xbebd369a	-0.3695572
3	0x3daee091	0.085389264
4	0x3d9c59e3	0.07634332
5	0xbe297491	-0.16548373
6	0xbb7ab0f4	-0.0038252445
7	0x3d9378bf	0.07200765
8	0x3d82fe1a	0.06396122
9	0x3da5249e	0.08063625

conv2.weight f4 [16, 10, 7, 7]
0	0x3e33fdea	0.1757733
1	0x3d956b8f	0.07295906
2	0x3ca0c6d9	0.019626068
3	0x3b4ffe3d	0.0031737231
4	0x3cb11396	0.021615785
5	0x3df46e56	0.119351074
6	0x3d7f3d04	0.06231405
7	0x3d3f6d04	0.046734825
8	0x3e08b821	0.1335149
9	0x3d2a8457	0.041630115
10	0x3e143ab6	0.14475521
11	0x3d99b31c	0.075048655
12	0x3da5d9de	0.080981955
13	0x3dd9fa8b	0.106434904
14	0x3dae0937	0.08497851
15	0xbd5f1463	-0.0544628
16	0xbd88c0b9	-0.06677384
17	0x3c907934	0.01763592
18	0x3ddeb74a	0.10874803
19	0x3dd90cfb	0.10598179
20	0x3d18841d	0.037235368
21	0x3c7784b6	0.015107324
22	0x3c19b77a	0.009382123
23	0x3c9fa342	0.019487027
24	0x3c8e9181	0.017403366
25	0xbd265498	-0.04060802
26	0x3df4e9de	0.11958669
27	0x3cd9fb70	0.026609153
28	0x3c8bc015	0.017059365
29	0xbd8ce8da	-0.068803504
30	0xbc1bbe82	-0.00950587
31	0x3cc7dd16	0.024397414
32	0xbd16318a	-0.036668338
33	0xbc8ccd83	-0.01718784
34	0x3c483afb	0.012221093
35	0x3d24e461	0.04025686
36	0x3d1b4c9b	0.037914854
37	0x3b0e0056	0.002166768
38	0xbd00a976	-0.03141161
39	0xbd43dd0e	-0.047818236
40	0xbd84f9d4	-0.064929634
41	0x3b287ebd	0.0025710308
42	0x3c114c71	0.008868323
43	0xbd1f5224	-0.038896695
44	0xbd4bd802	-0.049766548
45	0xbd1caa23	-0.038248193
46	0xbd501c3b	-0.050808173
47	0xbce0ada0	-0.02742654
48	0xbca79a73	-0.02045939
49	0x3d1b8963	0.03797282
50	0xbc0704f4	-0.008240927
51	0xbc4c5e59	-0.012473666
52	0x3d2ef692	0.042715617
53	0x3d5f0c27	0.05445495
54	0x3d1e92c3	0.03871418
55	0x3cb9d06e	0.022682395
56	0x3dd07c62	0.10179974
57	0x3d46bc94	0.048519686
58	0xbcc010d7	-0.02344553
59	0xbd368872	-0.04456372
60	0xbd99845e	-0.0749595
61	0xb982c604	-0.00024943065
62	0x3d46606f	0.04843181
63	0x3c88a662	0.0166809
64	0xbc81487b	-0.015781632
65	0x3caa4777	0.02078603
66	0x3c10c2c1	0.008835495
67	0xbdd3405c	-0.1031501
68	0xbdd9fae4	-0.10643557
69	0xbd8159a1	-0.063159235
70	0xbd860bcb	-0.06545218
71	0x399f370b	0.00030367853
72	0xbd886208	-0.06659323
73	0xbd220196	-0.039552294
74	0xbd367049	-0.044540677
75	0xbd2a359a	-0.041555025
76	0xbd8985a2	-0.067149416
77	0x3d346d8b	0.04404978
78	0x3cddd65d	0.027079755
79	0x3c1ff0bd	0.009761986
80	0xbd069d1c	-0.032864675
81	0xbd602979	-0.05472705
82	0xbd125419	-0.035724733
83	0xbc69dc28	-0.014273681
84	0x3d9c775c	0.076399535
85	0x3d31093c	0.043221697
86	0xbcd698df	-0.026195941
87	0x3ca4c785	0.02011467
88	0xbc9aca46	-0.01889528
89	0x3d3dc398	0.04632911
90	0xbd8aa9fc	-0.06770703
91	0x3d93e052	0.0722052
92	0x3d9f2e66	0.07772522
93	0xbd3a5485	-0.04549076
94	0x3cc6950f	0.024240999
95	0x3d4328d3	0.047646355
96	0x3c40a0fc	0.011757132
97	0xbd549373	-0.05189843
98	0x3d88e528	0.06684333
99	0x3d80e212	0.062931195
100	0x3d85796b	0.06517299
101	0x3d2d3325	0.042285103
102	0x3cc09fa1	0.023513617
103	0x3cd2a77d	0.02571463
104	0xbb605930	-0.0034232847
105	0x3cf6ff4f	0.030151037
106	0x3d8998bc	0.06718585
107	0x3cc9c996	0.024632256
108	0xbd3c83b3	-0.046024036
109	0xbdc140c1	-0.09436179
110	0x3ccd9eb2	0.025100086
111	0x3d87cebe	0.0663123
112	0x3d104c73	0.035229158
113	0x3dab008a	0.08349712
114	0xba4ec1e0	-0.0007887166
115	0xbc8717a5	-0.016490767
116	0x3c550549	0.013001748
117	0xbd25a533	-0.04044075
118	0xbc2b6f68	-0.010463573
119	0x3d00fb8f	0.031489905
120	0x3c1d4535	0.00959902
121	0xbdba62e9	-0.09100897
122	0x3d5c4610	0.053777754
123	0x3d1680e0	0.036744
124	0xbc2e08aa	-0.010622183
125	0xbdab6f48	-0.083708346
126	0x3c2bfa2a	0.0104966555
127	0x3d36b60e	0.044607215
128	0x3d817c0b	0.063224874
129	0x3d712258	0.058870643
130	0xbb0102b3	-0.0019685447
131	0x3cc7009b	0.02429228
132	0xbcb77d0b	-0.022398492
133	0x3ceda0a3	0.029007262
134	0x3d28dc9a	0.041226007
135	0x3dd062de	0.101751074
136	0x3d21f70f	0.039542254
137	0x3d7bc061	0.061462764
138	0x3d1f9b43	0.03896643
139	0xbc3c4b3a	-0.011492545
140	0x3d7308b7	0.059334483
141	0x3d0602b2	0.032717414
142	0x3deb3717	0.11485117
143	0x3dae4d6f	0.08510863
144	0x3c6faa2f	0.014627977
145	0xbc14cf1a	-0.00908258
146	0xbd0e669b	-0.03476582
147	0x3d27bcdf	0.040951606
148	0xbce48f74	-0.027900435
149	0x3bc38d07	0.0059677395
150	0xbd7eb4aa	-0.062184013
151	0xbdc6e363	-0.09711339
152	0xbd5d4d65	-0.054028887
153	0x3d039f1c	0.03213416
154	0xbd38ca6f	-0.04511493
155	0xbd7b1697	-0.06130084
156	0x3b5b5872	0.0033469466
157	0x3d40aa01	0.04703713
158	0xbc0556cf	-0.008138373
159	0xbd8079aa	-0.062732056
160	0xbd84b1b8	-0.0647921
161	0xbdf403df	-0.11914801
162	0xbd80944e	-0.06278287
163	0x3be2156a	0.0068995254
164	0xbc8ff6ff	-0.017573832
165	0x3d16f729	0.036856804
166	0x3d4340f6	0.047669373
167	0x3cc5a0b8	0.024124488
168	0xbd81e6e7	-0.06342869
169	0xbcb3d776	-0.021953326
170	0x3d185d3e	0.037198298
171	0x3c08d6b6	0.008351972
172	0xbb0a23e7	-0.0021078528
173	0x3d73ed6d	0.0595526
174	0x3dc2c400	0.0951004
175	0xbd044234	-0.0322897
176	0x3cc39d3c	0.023878686
177	0xbd257782	-0.040397175
178	0x3caec76c	0.021335326
179	0x3c18cd9b	0.009326364
180	0x3dad16c1	0.084516056
181	0x3da4a270	0.08038795
182	0xbd8191ba	-0.06326623
183	0x3d5f4dd9	0.0545176
184	0xbd267ac9	-0.04064444
185	0xbc90b805	-0.017665872
186	0x3d96d2fe	0.07364462
187	0x3deaac64	0.11458662
188	0x3c670ba1	0.014101894
189	0x3c28628a	0.0102774
190	0x3d3ddb1d	0.04635154
191	0x3c83180f	0.016002683
192	0x3d508f27	0.05091777
193	0x3d0d6b54	0.034526184
194	0x3dcb13ed	0.0991591
195	0x3d8375b0	0.064189315
196	0xbc718480	-0.014741063
197	0x3d4cb836	0.049980365
198	0x3d4557f3	0.048179578
199	0x3c01f7bb	0.007932599
200	0xbd114f7a	-0.035476185
201	0x3c49ddbc	0.012320932
202	0xbb404383	-0.0029337115
203	0xbd85429e	-0.06506847
204	0xbd09e099	-0.03366146
205	0x3bde30fc	0.0067807417
206	0x3d056983	0.032571327
207	0xbd84175b	-0.06449767
208	0xbda17103	-0.078828834
209	0xbd7d4452	-0.061832733
210	0xbd4d895d	-0.050179828
211	0xbc36ea93	-0.011164325
212	0xbca7cfae	-0.020484772
213	0xbcb0eecc	-0.021598242
214	0x3ccf22b9	0.025285112
215	0x3d8fcb1b	0.07021161
216	0xbc960305	-0.018311987
217	0xbc1a788a	-0.009428153
218	0xbca4dbb8	-0.020124301
219	0x3c802f11	0.015647443
220	0xbd347bec	-0.044063494
221	0x3ca3444d	0.01993003
222	0x3d9d5ad3	0.07683339
223	0xb926b1ef	-0.00015897279
224	0x3c6fb0a3	0.014629516
225	0x3a59aad7	0.000830335
226	0x3d23025a	0.039797164
227	0x3d8a9d8f	0.06768333
228	0x3d0a7185	0.033799667
229	0x3d875fa0	0.06610036
230	0xbbafc1a2	-0.005363659
231	0x3d0d4009	0.034484897
232	0x3d0faf22	0.03507913
233	0x3d85f16e	0.0654019
234	0x3ce92dae	0.028464165
235	0x3d7f2872	0.06229443
236	0x3d9e4b1c	0.0772917
237	0xbd714930	-0.058907688
238	0xbd768165	-0.060181994
239	0xbca9a0d0	-0.020706564
240	0x3d6c439f	0.057681676
241	0x3d45f0fd	0.048325527
242	0x3c7d001d	0.015441922
243	0x3c6b0fbd	0.014347014
244	0xbd1c67b3	-0.038184833
245	0x3d839edc	0.064267844
246	0x3d84ae12	0.06478514
247	0xbca2d741	-0.019878032
248	0x3d9cc39c	0.07654497
249	0x3d4df504	0.050282493
250	0x3d8bc18f	0.06824028
251	0x3df6cfb6	0.120513365
252	0x3e1e5ee8	0.15465891
253	0x3d74e4b9	0.05978844
254	0x3c9bdd26	0.01902635
255	0x3d05d69e	0.032675378

conv2.bias f4 [16]
0	0xbe5c3bff	-0.21507262
1	0xbcfb1051	-0.030647429
2	0xbdae888a	-0.085221365
3	0xbe1a118b	-0.15045755
4	0xbe01d6a8	-0.12679541
5	0xbe3c0f2f	-0.18365167
6	0x3e1e5238	0.15461051
7	0x3e16b7d3	0.14718561
8	0x3db39d0c	0.08770189
9	0x3e416cff	0.18889235
10	0x3e7b806d	0.2456071
11	0xbdb97700	-0.090559006
12	0xbe11600f	-0.141968
13	0xbd97eb7c	-0.07417962
14	0xbe43f6e4	-0.1913715
15	0xbda99522	-0.08280398

fc1.weight f4 [80, 256]
0	0xbcf4b47b	-0.029871216
1	0xbd7600a1	-0.060059194
2	0xbceba8d0	-0.02876702
3	0xbd8e80a2	-0.069581285
4	0x3c9ce584	0.01915241
5	0xbdb6f698	-0.08933753
6	0xbda28be3	-0.079368375
7	0x3c4e94b1	0.012608693
8	0x3d87b891	0.06627
9	0x3d6d3e78	0.057920903
10	0x3c1ea4be	0.009682832
11	0xbcca312f	-0.024681656
12	0x3d86850d	0.06568346
13	0x3d4c5064	0.049881354
14	0xbcd47875	-0.025936345
15	0x3d5f220d	0.054475833
16	0x3c5f0669	0.013612368
17	0x3cb0bfc7	0.021575822
18	0xbb19c160	-0.0023461208
19	0x3d81a3a8	0.06330043
20	0x3ccfd594	0.025370397
21	0xbc328391	-0.010895626
22	0x3cf1e510	0.02952817
23	0x3c249b46	0.010046786
24	0xbd13e375	-0.03610559
25	0x3d0fea2f	0.035135444
26	0x3d797665	0.060903925
27	0x3bc8af42	0.006124408
28	0xbcbda89f	-0.023151694
29	0xbcf5084f	-0.029911188
30	0xbcae4a87	-0.021275772
31	0xbc16023e	-0.009155808
32	0xbcc7e872	-0.02440283
33	0x3d5da18a	0.054109134
34	0x3d1f43d7	0.038883056
35	0x3c52f325	0.012875353
36	0xba5af037	-0.0008351835
37	0x3d33229a	0.04373417
38	0x3d1c82cc	0.038210675
39	0x3d6ac818	0.05731973
40	0xbc371138	-0.011173539
41	0x3d0b0568	0.033940703
42	0x3d3aab4c	0.045573518
43	0x3d8ac99a	0.06776734
44	0xbd7fb968	-0.062432677
45	0xbdc1a724	-0.09455708
46	0x3d5b627f	0.05356073
47	0x3ce41fd1	0.027847202
48	0xbcd424c8	-0.025896445
49	0xbd238c56	-0.039928757
50	0xbd199f42	-0.037505396
51	0xbdb621da	-0.088931754
52	0xbd36bcd5	-0.044613678
53	0x3d1bbd01	0.038022045
54	0xbdaea539	-0.085276075
55	0xbcbfd7de	-0.023418363
56	0xbd15092c	-0.0363857
57	0x3dca55c9	0.098796435
58	0xbce0a21a	-0.027421046
59	0x3cc1441c	0.023592047
60	0xbc9ba72e	-0.019000616
61	0x3c4db18c	0.0125545375
62	0xbc883505	-0.016626844
63	0x3d91e685	0.07124046
64	0x3d95c11f	0.073122256
65	0xbb782cc0	-0.003786847
66	0xbd150796	-0.036384188
67	0x3d468f29	0.048476372
68	0x3b65520d	0.0034991533
69	0xbcf166d0	-0.02946797
70	0xbd61eb93	-0.0551563
71	0xbd037c16	-0.03210076
72	0xbd6b47bf	-0.05744147
73	0xbc478966	-0.012178754
74	0xbc8d3bce	-0.017240431
75	0x3d8be4f3	0.06830778
76	0x3c643058	0.013927542
77	0xbbac6295	-0.0052607753
78	0xbcc2b760	-0.02376908
79	0xbc15fdb5	-0.009154727
80	0xbc4bc366	-0.012436723
81	0x3d78f6bc	0.06078218
82	0x3d45b20c	0.0482655
83	0x3d3f0849	0.04663876
84	0xbdc3039d	-0.095221736
85	0xbced71a8	-0.02898486
86	0x3df238b3	0.11827221
87	0x3e0c5664	0.1370483
88	0xbc718f1b	-0.014743592
89	0xbd450d44	-0.048108354
90	0x3d083251	0.03325111
91	0x3d0597d2	0.03261549
92	0x3d2ffac6	0.042963766
93	0x3c94d2dc	0.018166952
94	0x3cbf1f52	0.023330364
95	0xbde32ab7	-0.110921316
96	0x3dfb38b8	0.122666776
97	0xbd7ab683	-0.061209213
98	0x3d8649e0	0.06557059
99	0x3ae6440e	0.0017567889
100	0xbd6bc08e	-0.05755668
101	0x3d9ff73b	0.07810827
102	0x3d835dfd	0.06414411
103	0xbbaab39e	-0.0052094003
104	0x3db4c1ee	0.08826052
105	0x3d152a63	0.036417376
106	0x3d0b68fe	0.034035675
107	0xbd6226d4	-0.05521281
108	0x3d973913	0.07383933
109	0xbd12b35e	-0.03581559
110	0xbd4cbb2f	-0.0499832
111	0xbcc8ca1b	-0.024510434
112	0x3bc91752	0.006136813
113	0x3dc0311d	0.093843676
114	0x3cb59970	0.022167891
115	0xbcac67ce	-0.021045592
116	0x3c868259	0.016419576
117	0xbd7d8929	-0.061898384
118	0xbb221a9a	-0.0024735094
119	0x3d9bf044	0.076141864
120	0x3cce4452	0.025179062
121	0xbcf109ad	-0.02942356
122	0xbdce3630	-0.10068929
123	0x3cdfec5d	0.027334386
124	0x3c9c3a41	0.019070746
125	0x3d8149b8	0.06312889
126	0x3dec95eb	0.11552032
127	0x3c3f8398	0.011689089
128	0x3dcd1d5b	0.10015365
129	0x3e14f1d6	0.14545378
130	0x3cdd01ce	0.0269784
131	0xbbe9c875	-0.007134492
132	0x3d018228	0.031618267
133	0xbc70c7d5	-0.014696081
134	0xbd8a47a0	-0.06751943
135	0xbdace80c	-0.08442697
136	0x3d0b31e4	0.033983126
137	0x3cefa7e4	0.029254861
138	0xbcd836c7	-0.026393307
139	0xbd4c2bd1	-0.049846474
140	0xbdc5e99c	-0.09663698
141	0x3d719cfd	0.058987606
142	0x3d8e55f8	0.06949991
143	0x3d85e5ab	0.06537946
144	0xbd87ce6c	-0.06631169
145	0xbd20f62b	-0.039297264
146	0x3d0ffe70	0.03515476
147	0x3b653c24	0.0034978474
148	0x3dbfdcbf	0.09368276
149	0xbcb353f1	-0.021890612
150	0xbdc15410	-0.09439862
151	0xbd058c13	-0.03260429
152	0xbb69a52e	-0.0035651433
153	0x3b1f2392	0.0024282676
154	0xbd1ee8e0	-0.038796306
155	0x3b8466d6	0.0040405793
156	0xbd4d5e02	-0.05013848
157	0xbcd62c79	-0.026144253
158	0x3d7c172e	0.061545543
159	0x3d537833	0.051628303
160	0xbe189d6a	-0.14903799
161	0xbe087626	-0.1332632
162	0xbdb7dca5	-0.089776315
163	0xbd281a5c	-0.041040763
164	0xbb922168	-0.0044595487
165	0xbccbda3f	-0.024884341
166	0xbc5db7df	-0.013532608
167	0xbd8d8e0a	-0.069118574
168	0x3d2a2180	0.041535854
169	0x3d7ac2aa	0.061220802
170	0x3d71c723	0.059027802
171	0xbc6fc126	-0.0146334525
172	0xbd4c6514	-0.049901083
173	0xbd276f50	-0.04087764
174	0x3d6a78e7	0.057244208
175	0xbcba603a	-0.022750963
176	0x3da4d5cd	0.08048592
177	0xbbe257d4	-0.0069074426
178	0x3dd7034e	0.10498677
179	0xbc6a938d	-0.014317405
180	0x3d59c35f	0.053164836
181	0x3c97880a	0.018497486
182	0x3cf85932	0.03031597
183	0x3d4ebaee	0.05047124
184	0x3d2a9dbb	0.04165433
185	0xbb5329c8	-0.0032220948
186	0x3d4f15da	0.05055795
187	0x3c43aab3	0.011942553
188	0xbcce7c45	-0.02520574
189	0x3cdaf9d8	0.026730463
190	0xbb785e88	-0.0037898142
191	0x3d1ec61e	0.038763158
192	0xbd242caa	-0.040081657
193	0x3d4e3531	0.050343696
194	0x3d334516	0.043767057
195	0xbd33519a	-0.043778993
196	0x3d6b8951	0.057504002
197	0xbd251121	-0.04029954
198	0x3d7e744b	0.062122624
199	0xbd55eabd	-0.052225817
200	0xbcac1fb7	-0.021011217
201	0xba04ea75	-0.0005070337
202	0x3c3cbc5d	0.011519519
203	0x3d836ef6	0.064176485
204	0xbd9cd166	-0.07657127
205	0xbc1e7215	-0.009670754
206	0x3b5a5933	0.0033317327
207	0x3d10ea9c	0.03537999
208	0x3ca48e4b	0.020087382
209	0x3dbbe73a	0.09174962
210	0xbddf5ce5	-0.1090639
211	0x3c966294	0.018357553
212	0xbc140061	-0.009033293
213	0x3d101822	0.035179265
214	0xbdee63df	-0.11640143
215	0x3d3ea4e5	0.046543974
216	0xbde0cfd2	-0.109771386
217	0xbd80d57c	-0.06290719
218	0xbe1588bd	-0.14602943
219	0x3db5a36d	0.088690616
220	0xbd6ca13e	-0.05777096
221	0xbdf4e98f	-0.1195861
222	0xbe21ba27	-0.15793668
223	0xbd9a1c02	-0.07524873
224	0xbd1927ca	-0.03739146
225	0x3be11c1c	0.006869806
226	0x3d2e0b25	0.042491097
227	0x3da75254	0.0817
228	0x3af23ab1	0.0018480626
229	0xbcbea041	-0.023269774
230	0x3d6b76ed	0.057486463
231	0x3c2abe45	0.01042134
232	0x3cf99b57	0.03046958
233	0x3c7e7e18	0.015532993
234	0x3d0b9e1a	0.034086324
235	0xbd88d3c2	-0.066810146
236	0x3c9537f1	0.018215152
237	0xbcf34c43	-0.02969945
238	0x3bc25aa5	0.005931216
239	0xbe1027a4	-0.14077622
240	0x3d99b176	0.07504551
241	0x3d0c199d	0.034204114
242	0x3d1dab32	0.038493343
243	0x3c38f39d	0.011288551
244	0x3d0063f9	0.03134534
245	0x3d062e05	0.03275873
246	0xbba4bb8d	-0.0050272406
247	0x3d4c7a34	0.04992123
248	0xbd838411	-0.06421674
249	0xbd880e1a	-0.06643315
250	0xbc912ce9	-0.01772161
251	0xbd92b53a	-0.071634725
252	0xbd2a42a1	-0.04156745
253	0x3c6ee3d1	0.014580683
254	0x3c20ada1	0.009807021
255	0xbc8d564b	-0.017253062

fc1.bias f4 [80]
0	0x3ce64a1f	0.028111516
1	0xbdd96995	-0.10615841
2	0xbdc69944	-0.09697202
3	0x3d0e1f72	0.034697957
4	0x3db9262e	0.09040485
5	0xbd41e0b9	-0.047333453
6	0x3c892515	0.016741315
7	0xbd442bef	-0.04789346
8	0x3cacbb38	0.021085367
9	0xbe7745d8	-0.24147737
10	0xbe348b42	-0.17631248
11	0x3d1e0c41	0.038585905
12	0xbe211e3d	-0.15734191
13	0xbe09b1d6	-0.13446745
14	0x3d20f0f9	0.03929231
15	0x3e28bd04	0.16478354
16	0xbcd1a8a2	-0.025593106
17	0x3db7d79f	0.08976673
18	0x3cf51945	0.029919276
19	0xbd386e8e	-0.04502731
20	0xbcbaa1bf	-0.022782205
21	0x3bd113bb	0.006380526
22	0xbe226617	-0.15859257
23	0xbdeda574	-0.11603823
24	0xbdf43921	-0.11924959
25	0x3e0c744b	0.13716237
26	0x3c494ca3	0.012286338
27	0x3e0b5b1b	0.13608973
28	0xbd999b9b	-0.075003825
29	0x3dd2f6ab	0.103009544
30	0x3cec6010	0.0288544
31	0xbddbda2e	-0.10734974
32	0x3dfc1ccc	0.1231018
33	0x3bb915bf	0.0056483443
34	0xbd9832bb	-0.07431551
35	0xbd96a81c	-0.07356283
36	0xbe1e33cc	-0.15449446
37	0x3d0f3957	0.034966793
38	0x3da8756c	0.082255214
39	0x3e2840fc	0.1643104
40	0x3dcfa13b	0.10138174
41	0xbd8c7907	-0.06859022
42	0xbdb6d299	-0.08926887
43	0xbe0e5ede	-0.13903376
44	0x3cbda72e	0.023151007
45	0xbdfcba05	-0.12340168
46	0x3daf1215	0.08548371
47	0xbdbb6ad2	-0.09151234
48	0xbd0007e7	-0.031257536
49	0x3d8a0f8e	0.06741248
50	0x3cd82647	0.02638544
51	0xbd94c57e	-0.07264231
52	0xbd12c991	-0.03583676
53	0x3de38617	0.1110956
54	0x3b18bbd6	0.0023305318
55	0xbc601d11	-0.013678805
56	0x3e0064c0	0.12538433
57	0x3e03633f	0.12830828
58	0xbd1874f2	-0.037220903
59	0x3de0097a	0.109393075
60	0x3e3066f0	0.17226768
61	0xbdf8fd5f	-0.12157702
62	0x3d8ee45c	0.0697715
63	0x3d8f2349	0.06989152
64	0xbe2483c6	-0.16065893
65	0x3d9f92ad	0.07791648
66	0xbe0bfd45	-0.13670833
67	0xbdb9fd72	-0.09081544
68	0xbddfa0a5	-0.109193124
69	0xbdd6af3f	-0.10482644
70	0x3c961803	0.018321997
71	0xbdd858b3	-0.10563793
72	0x3e08721f	0.13324784
73	0x3df41d76	0.11919682
74	0xbcb8edef	-0.022574393
75	0xbd090119	-0.033448312
76	0xbcd5c3c0	-0.026094317
77	0x3de89f55	0.11358515
78	0xbd7e1054	-0.06202729
79	0xbd36cbc6	-0.044627927

fc2.weight f4 [64, 80]
0	0xbd2f6dbb	-0.042829257
1	0xbe4940c4	-0.19653612
2	0xbd782347	-0.060580518
3	0xbb40e66d	-0.002943422
4	0x3ddf515e	0.109041914
5	0xbdac5e96	-0.08416478
6	0xba7397d9	-0.00092923414
7	0x3e053d4c	0.13011664
8	0x3d0d0666	0.03442993
9	0x3cf2a515	0.029619733
10	0x3e16513b	0.14679424
11	0xbdd3ebdc	-0.10347721
12	0x3d246b33	0.040141296
13	0x3dc80f99	0.097686
14	0xbe3ccb8c	-0.18437022
15	0xbe3572ef	-0.17719625
16	0xbc4d3a5a	-0.012526119
17	0x3e264221	0.16236164
18	0x3bae658f	0.0053221653
19	0xbde5eb95	-0.11226574
20	0x3dcc28d0	0.09968722
21	0x3ba3cad9	0.0049985466
22	0xbdbcc9f8	-0.0921821
23	0xbe0c08c3	-0.13675217
24	0x3d0fdaac	0.03512065
25	0x3c006bd8	0.007838212
26	0xbaef3adc	-0.0018251794
27	0xbcbab453	-0.022791063
28	0x3e155e1d	0.14586683
29	0x3db568d4	0.08857885
30	0xbd7df850	-0.062004387
31	0x3dfbc122	0.122926965
32	0x3aea8545	0.0017892501
33	0xbe371a03	-0.17881016
34	0x3dba5a7f	0.09099292
35	0xbdd5efda	-0.10446139
36	0xbd30fe3a	-0.0432112
37	0x3e02315f	0.12714146
38	0xbd00d76c	-0.031455442
39	0x3e5557c0	0.20834255
40	0xbd16a108	-0.036774665
41	0xbe26a3f8	-0.16273487
42	0xbe4d221b	-0.20032541
43	0x3df71f11	0.12066472
44	0x3cbcbc20	0.023038924
45	0xbb026b17	-0.0019900256
46	0xbe41a0ae	-0.1890895
47	0x3d172239	0.03689787
48	0x3db5d2ff	0.08878135
49	0x3cf86c56	0.030325096
50	0x3e0b28df	0.1358981
51	0xbd9d96af	-0.07694756
52	0x3d865225	0.065586366
53	0xbdf52296	-0.11969487
54	0x3d8ca34d	0.06867085
55	0x3d0c9d05	0.034329433
56	0x3d1d2c48	0.038372308
57	0x3c87c38d	0.016572738
58	0x3c295b07	0.010336644
59	0xbdb7a749	-0.08967454
60	0xbe2139ea	-0.15744749
61	0x3cf7175f	0.030162511
62	0x3d8d15e4	0.06888941
63	0xbc4bc815	-0.01243784
64	0x3e0268f7	0.12735353
65	0x3c7c280c	0.015390407
66	0x3c8873d9	0.016656803
67	0xbb8bca9f	-0.0042660977
68	0x3c990d30	0.018683046
69	0x3b9972b1	0.0046828617
70	0xbcabace9	-0.020956473
71	0x3d11ba9b	0.03557835
72	0x3da07087	0.07833963
73	0xbb456f8b	-0.00301263
74	0xbdbad35b	-0.09122344
75	0x3ccf8828	0.025333479
76	0x3ddc82a0	0.10767102
77	0xbdb5d967	-0.08879357
78	0x3c6fa531	0.014626787
79	0xbd8664c0	-0.06562185
80	0xbcd1aebe	-0.025596019
81	0x3e1759ec	0.14780396
82	0x3e3e3d5a	0.18578091
83	0xbd5cf955	-0.05394872
84	0x3e1f7e6a	0.15575567
85	0xbd8ea514	-0.0696508
86	0xbe7a7ef1	-0.24462487
87	0xbcaa0856	-0.020755928
88	0xbd836a30	-0.06416738
89	0x3d25ac96	0.040447794
90	0x3d03ab3c	0.032145724
91	0xbe77d53e	-0.24202439
92	0x3d8cbbf4	0.06871787
93	0x3c83a527	0.016069962
94	0x3e1f4f84	0.15557677
95	0x3cb3c80c	0.021945976
96	0xbe83f03b	-0.2576922
97	0xbd809145	-0.06277708
98	0xbe0419b7	-0.12900434
99	0x3dade147	0.08490234
100	0x3d66782f	0.05626696
101	0x3e142a4b	0.14469258
102	0xbc8ca226	-0.017167162
103	0x3e83d5dc	0.257491
104	0xbe3d0378	-0.18458354
105	0x3e95c511	0.29251912
106	0x3e882351	0.26589444
107	0x3b117aba	0.0022198395
108	0xbda91862	-0.08256604
109	0x3de1cb32	0.110250846
110	0xbdb658dc	-0.08903667
111	0xbd311e48	-0.04324177
112	0xbe58734c	-0.21137732
113	0x3df8a3a7	0.12140589
114	0x3db82376	0.08991139
115	0xbe1b46b7	-0.15163694
116	0x3d8c6efd	0.06857107
117	0x3c0a4fe7	0.008441902
118	0xbb8f8c8f	-0.0043807696
119	0x3e1e941d	0.15486188
120	0xbe761534	-0.24031526
121	0xbe69d916	-0.22836718
122	0x3e930402	0.28713995
123	0xbe41a3a9	-0.18910088
124	0x3e884f58	0.26623034
125	0x3da30dcf	0.07961618
126	0xb81b8529	-3.7078895e-05
127	0xbe5a832b	-0.21339099
128	0x3b86e0e5	0.004116165
129	0x3e77c27c	0.24195284
130	0x3bfc2899	0.0076952693
131	0x3dfd42e3	0.12366273
132	0xbe267100	-0.16254044
133	0x3df5475a	0.119765
134	0xbd9abf7e	-0.075560555
135	0xbdadb4a4	-0.0848172
136	0x3dd68845	0.1047521
137	0xbe1b47fe	-0.15164182
138	0x3de52aff	0.111898415
139	0xbe112ad0	-0.14176488
140	0x3dae2ad9	0.08504266
141	0x3e165936	0.14682469
142	0x3c8eed2c	0.017447077
143	0x3e0cf294	0.13764411
144	0xbc6a55f5	-0.01430272
145	0x3d442274	0.04788442
146	0x3d20b08f	0.03923088
147	0x3e99489c	0.2993821
148	0x3e007a07	0.1254655
149	0xbb355e1e	-0.0027674506
150	0xbdbe357d	-0.09287546
151	0x3d9bffa5	0.0761712
152	0x3e8fe45b	0.2810391
153	0x3e22d8a2	0.15902951
154	0x3cb088a5	0.021549532
155	0xbd177d92	-0.036984988
156	0xbdd7a8fb	-0.10530277
157	0xbe2c2231	-0.16809918
158	0xbe17236b	-0.14759605
159	0xbe99f4bd	-0.30069533
160	0xbe220806	-0.15823373
161	0x3c62e8ff	0.013849496
162	0x3ab65339	0.00139103
163	0xbc8298d7	-0.01594202
164	0x3d746334	0.05966492
165	0x3e77a993	0.24185781
166	0x3e6ca55f	0.23109959
167	0xbdadd81e	-0.08488487
168	0x3d314975	0.043282945
169	0xbe10258a	-0.1407682
170	0x3d6dffcf	0.058105286
171	0x3e68566e	0.2268922
172	0x3d7d1830	0.061790645
173	0x3da0de4c	0.078549
174	0xbe61ec3b	-0.22062771
175	0xbb813daf	-0.003944121
176	0x3bc642a1	0.0060504233
177	0xbda72682	-0.08161642
178	0x3cdc227b	0.02687191
179	0x3dfbf5d9	0.12302751
180	0x3bac9f3d	0.005268006
181	0xbcc983d0	-0.024598986
182	0x3e187a80	0.1489048
183	0x3d71a97c	0.058999524
184	0x3c6d2f3e	0.014476595
185	0xbdae73e5	-0.08518199
186	0x3d5963ec	0.05307381
187	0xbde60b30	-0.112326026
188	0xbdd60eaf	-0.104520194
189	0xbde12ed5	-0.109952606
190	0x3d32900a	0.043594398
191	0xbddda0f4	-0.10821715
192	0x3d0ac96b	0.033883493
193	0xbe188e02	-0.14897922
194	0x3e2ed2f4	0.1707266
195	0x3e28b664	0.16475827
196	0x3d885b72	0.06658067
197	0x3befd0e5	0.0073186033
198	0xbd48ffba	-0.049072005
199	0x3da09f77	0.078429155
200	0x3d13ab40	0.03605199
201	0x3e20845e	0.15675494
202	0xbd8f9c39	-0.07012219
203	0x3d8198d9	0.063279815
204	0x3d83f6bd	0.06443546
205	0xbdb7a50a	-0.089670256
206	0xbc7f5f70	-0.015586719
207	0x3d162bfa	0.036663033
208	0x3dfdeb47	0.12398391
209	0xbcb076f2	-0.021541093
210	0x3d314c0f	0.043285426
211	0xbe164a8e	-0.14676878
212	0xbda153be	-0.07877301
213	0xbe0f4b24	-0.13993508
214	0x3d3994ef	0.04530805
215	0x3d3690ca	0.044571675
216	0x3db91807	0.09037786
217	0xbdc63448	-0.096779406
218	0x3b958ece	0.004564143
219	0xbd1a659a	-0.03769455
220	0xbe02e479	-0.12782468
221	0x3e0963b1	0.13416936
222	0x3dc4898d	0.09596548
223	0xbe2cc6b0	-0.16872668
224	0x3e1945a4	0.14967972
225	0xbdfd5fda	-0.12371798
226	0xbd466af7	-0.048441853
227	0x3cd7da58	0.026349232
228	0xbc86bdcb	-0.016447922
229	0x3e4203ed	0.1894681
230	0x3e2b87e4	0.16751057
231	0xbe168a08	-0.14701092
232	0xbd032c99	-0.032024954
233	0xbd862db8	-0.06551689
234	0x39bedeac	0.00036405527
235	0xbe3d1d89	-0.18468298
236	0xbd9cfd36	-0.07665484
237	0x3bf68c6a	0.007524063
238	0xbd4da6ea	-0.05020801
239	0x3dfad4c2	0.122476116
240	0xbd4f2927	-0.050576355
241	0xbe07c6b8	-0.13259399
242	0xbd98f16c	-0.074679226
243	0x3e756259	0.23963298
244	0x3d7aa792	0.061194964
245	0x3da3dce2	0.080011144
246	0x3e29646c	0.16542214
247	0xbdbffba0	-0.093741655
248	0xbcb790aa	-0.022407848
249	0xbe16109c	-0.14654773
250	0x3d44d4fe	0.048054688
251	0x3e3170f2	0.17328241
252	0xbe5b7155	-0.21429951
253	0xbb3589e9	-0.002770061
254	0x3d28f239	0.041246627
255	0x3e08faa7	0.13376866

fc2.bias f4 [64]
0	0x3c79b1a2	0.015240105
1	0x3e499d9d	0.19689031
2	0xbe13f9e6	-0.14450797
3	0x3e27e00e	0.16394064
4	0xbe6aae40	-0.22918034
5	0xbe5204f7	-0.20509706
6	0x3dec59bc	0.11540553
7	0x3de574eb	0.11203941
8	0x3e956869	0.2918122
9	0x3e49c0ca	0.1970245
10	0xbc06ec37	-0.008235029
11	0x3d4b7f75	0.0496821
12	0x3e5005d4	0.20314723
13	0xbdecf66f	-0.11570441
14	0xbe23ee46	-0.16008863
15	0x3d955f86	0.0729361
16	0xbd3c022b	-0.045900505
17	0x3dd1a7e8	0.10237104
18	0x3e35f54b	0.17769353
19	0x3d83bd77	0.06432622
20	0x3e56064c	0.2090084
21	0xbd5824ab	-0.052769344
22	0x3e4e6784	0.20156676
23	0x3db44696	0.08802526
24	0x3e8b5f2c	0.27221048
25	0x3ceec8ce	0.029148486
26	0xbe32d7cf	-0.17465137
27	0x3eaaa661	0.33330062
28	0xbda4d18a	-0.08047779
29	0xbd631480	-0.055439472
30	0x3d77cd49	0.06049851
31	0x3c876343	0.016526824
32	0x3e69adea	0.22820249
33	0x3b38ab3f	0.0028178243
34	0x3cc6d533	0.024271583
35	0xbc8ea304	-0.017411716
36	0xbe12db0c	-0.14341372
37	0x3d006d18	0.03135404
38	0xbe369e57	-0.1783384
39	0x3e9805ea	0.29692012
40	0x3bb5029d	0.005523993
41	0x3e4b115d	0.19830842
42	0x3ea7f6b8	0.3280542
43	0x3d25040d	0.040287066
44	0xbdd360fe	-0.10321234
45	0x3df6cb77	0.120505266
46	0xbe85e7d9	-0.26153448
47	0xbe467bbd	-0.1938314
48	0x3d73853e	0.05945324
49	0x3d31f80f	0.043449458
50	0x3e5479cc	0.20749587
51	0x3d256315	0.040377695
52	0x3dff13dd	0.124549605
53	0x3e897e59	0.26854208
54	0x3dc510a5	0.09622315
55	0x3e7953cc	0.24348372
56	0xbe452850	-0.19253659
57	0x3cefbd07	0.02926494
58	0xbbbaf883	-0.0057058944
59	0xbda065f3	-0.07831945
60	0x3df213b1	0.11820162
61	0xbe2f304d	-0.17108269
62	0xbdcd7e0d	-0.10033808
63	0x3ec79e76	0.38988084

fc3.weight f4 [8, 64]
0	0xbe3b5bc5	-0.18296726
1	0x3c987998	0.018612668
2	0xbe5eb5a6	-0.21748981
3	0xbf0c20a7	-0.54737324
4	0x3df3a1dd	0.11896107
5	0x3db19bc4	0.08672288
6	0xbea56dfa	-0.32310468
7	0x3df5e05d	0.120056845
8	0xbd9c1f4d	-0.07623158
9	0x3e0252ff	0.12726973
10	0xbe99cb9f	-0.30038163
11	0x3d6cb38a	0.05778841
12	0x3db30746	0.08741622
13	0x3d31e8c3	0.04343487
14	0xbdb81d1e	-0.08989929
15	0xbe0cf270	-0.13764358
16	0x3ce8bd62	0.028410617
17	0xbe93e930	-0.28888845
18	0xbe8ef157	-0.27918503
19	0xbebdd7cf	-0.3707871
20	0xbdc12375	-0.09430591
21	0x3d8493c6	0.06473498
22	0xbeff91a7	-0.4991581
23	0x3cb3ee4d	0.021964217
24	0xbdba7ed0	-0.09106219
25	0xbe574d35	-0.21025546
26	0x3e4d890f	0.20071815
27	0xbe0a21f6	-0.13489518
28	0x3db1eb8f	0.08687507
29	0xbde59869	-0.112107106
30	0xbe3c301e	-0.1837773
31	0xbe0a0210	-0.1347735
32	0x3db3ba12	0.087757245
33	0xbdc8f022	-0.09811427
34	0xbe6a2e17	-0.22869144
35	0xbe98559b	-0.29752812
36	0xbe9ea15b	-0.3098248
37	0xbeab60de	-0.3347234
38	0x3e0a5ba3	0.13511519
39	0xbe4271c3	-0.18988709
40	0x3e17c14e	0.14819834
41	0xbe37d001	-0.17950441
42	0xbe94089d	-0.2891282
43	0x3d28a9ac	0.041177437
44	0x3dace5a4	0.08442238
45	0xbeba04bc	-0.36331737
46	0x3db6865f	0.08912348
47	0x3dab3138	0.08358997
48	0xbd41ec2b	-0.047344368
49	0xbdd5c728	-0.10438377
50	0xbec99024	-0.39367783
51	0xbed254a9	-0.41080216
52	0xbe8c94bd	-0.27457228
53	0xbdec5b0c	-0.11540803
54	0x3d9670c9	0.07345731
55	0xbe747ed4	-0.23876506
56	0x3e126ce9	0.14299358
57	0x3d80af25	0.06283406
58	0x3d1cc0a2	0.038269646
59	0xbd812b9c	-0.06307146
60	0xbdcfabc9	-0.10140187
61	0xbc6b4e6d	-0.01436196
62	0x3e47dbe7	0.1951748
63	0xbe905c16	-0.28195256
64	0xbe0f33e2	-0.13984635
65	0xbf0d2921	-0.5514088
66	0x3d933ecf	0.07189714
67	0x3e0ffdb2	0.14061621
68	0xbe1549b9	-0.14578904
69	0x3dbbdf88	0.091734946
70	0x3d586d1e	0.052838437
71	0xbedfbe8f	-0.43700072
72	0xbe987180	-0.29774094
73	0xbe4d325c	-0.20038742
74	0x3d94b684	0.072613746
75	0xbe335480	-0.17512703
76	0xbf2495bb	-0.6429097
77	0x3db53f25	0.088499345
78	0xbe7e1cf1	-0.24815728
79	0x3d952e99	0.072842784
80	0x3dc5b443	0.09653523
81	0x3d43c334	0.047793582
82	0x38b55ca9	8.648012e-05
83	0x3da14a78	0.07875532
84	0xbe2b1ea8	-0.16710913
85	0x3db8d866	0.0902565
86	0xbe078f1e	-0.13238189
87	0xbe7c8c1e	-0.24662825
88	0xbeb8c110	-0.36084795
89	0x3df250a0	0.11831784
90	0xbe582ee6	-0.2111164
91	0xbeb994cf	-0.36246344
92	0xbeb7c153	-0.35889682
93	0x3deaad56	0.114588425
94	0xbe0d6312	-0.13807324
95	0xbe426fd8	-0.18987978
96	0xbedd6dcb	-0.43247828
97	0xbe8a595c	-0.270213
98	0x3dc88f4a	0.09792955
99	0xbdb3da40	-0.08781862
100	0x3e03cf59	0.12872066
101	0x3daa27d4	0.08308378
102	0x3d89b2a5	0.06723527
103	0xbe811fb6	-0.25219506
104	0xbf06446a	-0.5244814
105	0xbe8ec9fe	-0.27888483
106	0x3da71e02	0.081600204
107	0xbee1063b	-0.43950066
108	0x3d898d03	0.06716349
109	0x3db16751	0.08662284
110	0xbeb7ef62	-0.35924822
111	0x3d2917d7	0.0412825
112	0x3db40b23	0.08791187
113	0xbe78b658	-0.24288309
114	0xbde4f9f9	-0.11180491
115	0x3c43ce75	0.011951079
116	0x3df95d09	0.12175948
117	0xbd352acc	-0.044230267
118	0xbd9b3388	-0.07578188
119	0x3d88c295	0.066777386
120	0x3d7b9311	0.06141955
121	0xbebb413b	-0.36573204
122	0xbe7a21a4	-0.24426895
123	0x3e42bd29	0.19017471
124	0xbe9056dd	-0.2819127
125	0x3e1d3145	0.15350826
126	0xbe223092	-0.1583884
127	0xbe0b0731	-0.13576962
128	0x3def37ae	0.11680542
129	0xbbd39670	-0.0064571425
130	0x3c376a8b	0.011194835
131	0x3df37179	0.118868776
132	0x3db0a5fb	0.08625408
133	0xbe837b4e	-0.25680012
134	0xbdb8c8c6	-0.090226695
135	0x3df8b4a9	0.12143833
136	0x3e083948	0.13303101
137	0xbd92d424	-0.07169369
138	0x3e2c0d01	0.16801836
139	0xbe69698e	-0.22794172
140	0x3d1077e9	0.035270605
141	0xbe827635	-0.2548081
142	0x3e41842a	0.18898073
143	0xbe95793d	-0.2919406
144	0x3e17b712	0.1481593
145	0xbe8e7a8a	-0.27827865
146	0xbea94853	-0.33062991
147	0x3bb017b9	0.0053739217
148	0xbe9e2755	-0.30889383
149	0xbefbce65	-0.49180904
150	0x3d8f0ce8	0.069848835
151	0xbebe5743	-0.3717595
152	0xbddef728	-0.10886985
153	0x3db997db	0.09062167
154	0xbe3ea623	-0.18618064
155	0x3dd437d5	0.103622116
156	0xbe26f1f2	-0.16303232
157	0xbe5e94aa	-0.21736398
158	0xbe297c93	-0.16551428
159	0xbe999775	-0.29998365
160	0xbd00f1fc	-0.031480774
161	0x3d730f05	0.059340496
162	0xbde84b7a	-0.11342521
163	0x3e009bfe	0.12559506
164	0x3e6acf5d	0.22930665
165	0x3d8f4e97	0.06997412
166	0xbe8afcfe	-0.27146143
167	0x3d96eea4	0.07369736
168	0x3dd6e0d7	0.104921035
169	0xbe0faf38	-0.14031684
170	0xbeb8ce92	-0.360951
171	0xbe1c11cf	-0.15241168
172	0xbe8cc6c4	-0.27495396
173	0xbea0a0c0	-0.31372643
174	0xbe6665b6	-0.22499737
175	0x3da37186	0.07980637
176	0xbe3a8180	-0.18213463
177	0xbe1c43c1	-0.15260221
178	0xbe8c7c55	-0.27438608
179	0x3d360d33	0.04444618
180	0x3deac931	0.114641555
181	0xbe56a6a7	-0.2096201
182	0xbe646ac8	-0.22306359
183	0xbeabc3c2	-0.3354779
184	0xbeb268d3	-0.348456
185	0x3d429c80	0.04751253
186	0xbe32528e	-0.17414305
187	0x3ce3344d	0.0277349
188	0xbde94dc7	-0.11391788
189	0x3d44d07e	0.048050396
190	0xbe2cc922	-0.16873601
191	0xbe0da9e1	-0.13834335
192	0xbed7968e	-0.42107052
193	0xbb102688	-0.0021995623
194	0x3ccb766f	0.024836747
195	0xbe6a9b68	-0.22910845
196	0xbd12d170	-0.035844266
197	0xbdc7352a	-0.09726937
198	0xbe48a75b	-0.19595091
199	0xbe47334b	-0.1945316
200	0xbea22245	-0.3166677
201	0x3d701dca	0.05862216
202	0xbeab91d3	-0.33509693
203	0x3dc19b1e	0.094534144
204	0x3df1ea0e	0.118122205
205	0xbe266218	-0.16248357
206	0xbe994f94	-0.29943526
207	0x3e090ae8	0.13383067
208	0xbf019d3a	-0.50630534
209	0x3d7a3ed0	0.06109506
210	0x3e0c1fd8	0.13684022
211	0xbe9d05b4	-0.30668414
212	0xbe9b3fda	-0.30322152
213	0x3d91b3e8	0.071143925
214	0xbeb7f459	-0.3592861
215	0x3de66fe5	0.11251811
216	0x3e11ad09	0.14226164
217	0xbea27c31	-0.31735376
218	0xbe022066	-0.12707672
219	0x3dc0f3c9	0.09421498
220	0xbe395dd1	-0.18102194
221	0xbeb09b01	-0.3449326
222	0xbca53433	-0.020166492
223	0xbd95e2b0	-0.07318628
224	0xbde688ee	-0.11256586
225	0xbecd277c	-0.40069187
226	0xbdc73f46	-0.09728865
227	0xbdb02586	-0.08600907
228	0xbeda8079	-0.42676142
229	0xbf06ece1	-0.527052
230	0x3d8e5b70	0.06951034
231	0xbea9875c	-0.33111084
232	0x3d2ebec0	0.042662382
233	0x3cf12268	0.029435351
234	0xbe081ea1	-0.13292934
235	0xbe503342	-0.20332053
236	0x3e17b6a9	0.14815773
237	0xbe86edf8	-0.2635343
238	0x3dc982a8	0.09839374
239	0xbe917a21	-0.2841349
240	0xbd8a85d5	-0.06763808
241	0xbcb3df8e	-0.021957185
242	0xbea11d0d	-0.31467476
243	0x3c51805e	0.012786953
244	0xbe8fddb1	-0.28098825
245	0x3dcd60fc	0.10028264
246	0x3e10a8ec	0.14126939
247	0x3d8292fe	0.06375693
248	0x3e3ce078	0.18445003
249	0xbe96cb15	-0.29451814
250	0x3deb29a3	0.11482551
251	0xbe04347b	-0.12910645
252	0xbe825271	-0.25453523
253	0xbe85ac85	-0.26108184
254	0xbd08a189	-0.033357177
255	0xbd827dbc	-0.06371638

fc3.bias f4 [8]
0	0xbe927600	-0.28605652
1	0xbeb6fb15	-0.35738435
2	0xbdf756ea	-0.120771244
3	0xbe37bb40	-0.17942524
4	0xbe44f3ff	-0.19233702
5	0x3e843520	0.2582178
6	0x3e986ab5	0.2976891
7	0x3eb8e537	0.36112377
